…
     {
@@ -239,19 +261,24 @@
       "[INFO] Training VQ_VAE Model\n",
       "Model: \"encoder\"\n",
       "_________________________________________________________________\n",
-      "Layer (type)                 Output Shape              Param #   \n",
+      " Layer (type)                Output Shape              Param #   \n",
       "=================================================================\n",
-      "image_input (InputLayer)     [(None, 128, 128, 3)]     0         \n",
-      "_________________________________________________________________\n",
-      "conv_res_block (ConvResBlock (None, 64, 64, 64)        80320     \n",
-      "_________________________________________________________________\n",
-      "conv_res_block_1 (ConvResBlo (None, 32, 32, 128)       386560    \n",
-      "_________________________________________________________________\n",
-      "conv_res_block_2 (ConvResBlo (None, 16, 16, 256)       1543168   \n",
-      "_________________________________________________________________\n",
-      "conv_res_block_3 (ConvResBlo (None, 8, 8, 256)         4334080   \n",
-      "_________________________________________________________________\n",
-      "conv2d_34 (Conv2D)           (None, 8, 8, 512)         131584    \n",
+      " image_input (InputLayer)    [(None, 128, 128, 3)]     0         \n",
+      "                                                                 \n",
+      " conv_res_block (ConvResBloc  (None, 64, 64, 64)       80320     \n",
+      " k)                                                              \n",
+      "                                                                 \n",
+      " conv_res_block_1 (ConvResBl  (None, 32, 32, 128)      386560    \n",
+      " ock)                                                            \n",
+      "                                                                 \n",
+      " conv_res_block_2 (ConvResBl  (None, 16, 16, 256)      1543168   \n",
+      " ock)                                                            \n",
+      "                                                                 \n",
+      " conv_res_block_3 (ConvResBl  (None, 8, 8, 256)        4334080   \n",
+      " ock)                                                            \n",
+      "                                                                 \n",
+      " conv2d_22 (Conv2D)          (None, 8, 8, 512)         131584    \n",
+      "                                                                 \n",
       "=================================================================\n",
       "Total params: 6,475,712\n",
       "Trainable params: 6,470,848\n",
@@ -260,19 +287,25 @@
       "None\n",
       "Model: \"decoder\"\n",
       "_________________________________________________________________\n",
-      "Layer (type)                 Output Shape              Param #   \n",
+      " Layer (type)                Output Shape              Param #   \n",
       "=================================================================\n",
-      "latent_input (InputLayer)    [(None, 8, 8, 512)]       0         \n",
-      "_________________________________________________________________\n",
-      "conv_transpose_res_block (Co (None, 16, 16, 256)       4923904   \n",
-      "_________________________________________________________________\n",
-      "conv_transpose_res_block_1 ( (None, 32, 32, 256)       1838080   \n",
-      "_________________________________________________________________\n",
-      "conv_transpose_res_block_2 ( (None, 64, 64, 128)       607744    \n",
-      "_________________________________________________________________\n",
-      "conv_transpose_res_block_3 ( (None, 128, 128, 64)      152320    \n",
-      "_________________________________________________________________\n",
-      "conv2d_transpose_4 (Conv2DTr (None, 128, 128, 3)       1731      \n",
+      " latent_input (InputLayer)   [(None, 8, 8, 512)]       0         \n",
+      "                                                                 \n",
+      " conv_transpose_res_block (C  (None, 16, 16, 256)      4923904   \n",
+      " onvTransposeResBlock)                                           \n",
+      "                                                                 \n",
+      " conv_transpose_res_block_1   (None, 32, 32, 256)      1838080   \n",
+      " (ConvTransposeResBlock)                                         \n",
+      "                                                                 \n",
+      " conv_transpose_res_block_2   (None, 64, 64, 128)      607744    \n",
+      " (ConvTransposeResBlock)                                         \n",
+      "                                                                 \n",
+      " conv_transpose_res_block_3   (None, 128, 128, 64)     152320    \n",
+      " (ConvTransposeResBlock)                                         \n",
+      "                                                                 \n",
+      " conv2d_transpose_4 (Conv2DT  (None, 128, 128, 3)      1731      \n",
+      " ranspose)                                                       \n",
+      "                                                                 \n",
       "=================================================================\n",
       "Total params: 7,523,779\n",
       "Trainable params: 7,518,915\n",
@@ -321,127 +354,23 @@
   },
   {
    "cell_type": "code",
-   "execution_count": 19,
…
+   "execution_count": null,
    "metadata": {},
-   "outputs": [
-    {
-     "name": "stdout",
-     "output_type": "stream",
-     "text": [
-      "Model: \"model_7\"\n",
-      "_________________________________________________________________\n",
-      "Layer (type)                 Output Shape              Param #   \n",
-      "=================================================================\n",
-      "input_8 (InputLayer)         [(None, 8, 8)]            0         \n",
-      "_________________________________________________________________\n",
-      "tf.one_hot_7 (TFOpLambda)    (None, 8, 8, 256)         0         \n",
-      "_________________________________________________________________\n",
-      "pixel_conv_layer_21 (PixelCo (None, 8, 8, 128)         1605760   \n",
-      "_________________________________________________________________\n",
-      "residual_block_19 (ResidualB (None, 8, 8, 128)         98624     \n",
-      "_________________________________________________________________\n",
-      "residual_block_20 (ResidualB (None, 8, 8, 128)         98624     \n",
-      "_________________________________________________________________\n",
-      "residual_block_21 (ResidualB (None, 8, 8, 128)         98624     \n",
-      "_________________________________________________________________\n",
-      "residual_block_22 (ResidualB (None, 8, 8, 128)         98624     \n",
-      "_________________________________________________________________\n",
-      "residual_block_23 (ResidualB (None, 8, 8, 128)         98624     \n",
-      "_________________________________________________________________\n",
-      "pixel_conv_layer_27 (PixelCo (None, 8, 8, 128)         16512     \n",
-      "_________________________________________________________________\n",
-      "pixel_conv_layer_28 (PixelCo (None, 8, 8, 128)         16512     \n",
-      "_________________________________________________________________\n",
-      "pixel_conv_layer_29 (PixelCo (None, 8, 8, 128)         16512     \n",
-      "_________________________________________________________________\n",
-      "conv2d_102 (Conv2D)          (None, 8, 8, 256)         33024     \n",
-      "=================================================================\n",
-      "Total params: 2,181,440\n",
-      "Trainable params: 2,181,440\n",
-      "Non-trainable params: 0\n",
-      "_________________________________________________________________\n",
-      "None\n"
-     ]
-    },
-    {
-     "data": {
-      "text/html": [
-       "Finishing last run (ID:luzs6oci) before initializing another..."
…
