…
2021-12-14 15:06:09.882643: I tensorflow/core/common_runtime/gpu/gpu_device.cc:1525] Created device /job:localhost/replica:0/task:0/device:GPU:0 with 78548 MB memory:  -> device: 0, name: NVIDIA A100-SXM-80GB, pci bus id: 0000:4e:00.0, compute capability: 8.0
[INFO] loading image paths...
[TRAINING]	 138545
[VALIDATION]	 17318
[TEST]		 17319
[INFO] loading image paths...
[TRAINING]	 138545
[VALIDATION]	 17318
[TEST]		 17319
[INFO] loading image paths...
[TRAINING]	 138545
[VALIDATION]	 17318
[TEST]		 17319
Model: "generator"
_________________________________________________________________
 Layer (type)                Output Shape              Param #
=================================================================
 input_2 (InputLayer)        [(None, 256)]             0
 pixel_normalization (PixelN  (None, 256)              0
 ormalization)
 dense_1 (Dense)             (None, 8192)              2097152
 weight_scaling_4 (WeightSca  (None, 8192)             0
 ling)
 bias_4 (Bias)               (None, 8192)              8192
 leaky_re_lu_3 (LeakyReLU)   (None, 8192)              0
 pixel_normalization_1 (Pixe  (None, 8192)             0
 lNormalization)
 reshape (Reshape)           (None, 4, 4, 512)         0
 conv2d_3 (Conv2D)           (None, 4, 4, 512)         4194304
 weight_scaling_5 (WeightSca  (None, 4, 4, 512)        0
 ling)
 bias_5 (Bias)               (None, 4, 4, 512)         512
 leaky_re_lu_4 (LeakyReLU)   (None, 4, 4, 512)         0
 pixel_normalization_2 (Pixe  (None, 4, 4, 512)        0
 lNormalization)
 conv2d_4 (Conv2D)           (None, 4, 4, 512)         2359296
 weight_scaling_6 (WeightSca  (None, 4, 4, 512)        0
 ling)
 bias_6 (Bias)               (None, 4, 4, 512)         512
 leaky_re_lu_5 (LeakyReLU)   (None, 4, 4, 512)         0
 pixel_normalization_3 (Pixe  (None, 4, 4, 512)        0
 lNormalization)
 conv2d_5 (Conv2D)           (None, 4, 4, 3)           1536
 weight_scaling_7 (WeightSca  (None, 4, 4, 3)          0
 ling)
 bias_7 (Bias)               (None, 4, 4, 3)           3
 activation (Activation)     (None, 4, 4, 3)           0
=================================================================
Total params: 8,661,507
Trainable params: 8,661,507
Non-trainable params: 0
_________________________________________________________________
Epoch 1/50
2021-12-14 15:11:37.732794: I tensorflow/stream_executor/cuda/cuda_blas.cc:1774] TensorFloat-32 will be used for the matrix multiplication. This will only be logged once.
2021-12-14 15:11:37.868658: I tensorflow/stream_executor/cuda/cuda_dnn.cc:366] Loaded cuDNN version 8300
…
[INFO] Fading phase for 1NeuroGEN/Dataset/Img/img_align_celeba/106483.jpg', shape=(), dtype=string)aphviz.gitlab.io/download/) ', 'for plot_model/model_to_dot to work.')
[INFO] Fading phase for 1NeuroGEN/Dataset/Img/img_align_celeba/106483.jpg', shape=(), dtype=string)aphviz.gitlab.io/download/) ', 'for plot_model/model_to_dot to work.')
                                                                                                  )aphviz.gitlab.io/download/) ', 'for plot_model/model_to_dot to work.')
                                                                                                  )aphviz.gitlab.io/download/) ', 'for plot_model/model_to_dot to work.')
 pixel_normalization_5 (PixelNo  (None, 8, 8, 512)   0           ['leaky_re_lu_7[0][0]']
 rmalization)
 conv2d_5 (Conv2D)              multiple             1536        ['up_sampling2d[0][0]']
 conv2d_8 (Conv2D)              (None, 8, 8, 3)      1536        ['pixel_normalization_5[0][0]']
 weight_scaling_7 (WeightScalin  multiple            0           ['conv2d_5[1][0]']
 g)
 weight_scaling_10 (WeightScali  (None, 8, 8, 3)     0           ['conv2d_8[0][0]']
 ng)
 bias_7 (Bias)                  multiple             3           ['weight_scaling_7[1][0]']
 bias_10 (Bias)                 (None, 8, 8, 3)      3           ['weight_scaling_10[0][0]']
 activation (Activation)        multiple             0           ['bias_7[1][0]']
 activation_1 (Activation)      (None, 8, 8, 3)      0           ['bias_10[0][0]']
 weighted_sum (WeightedSum)     (None, 8, 8, 3)      1           ['activation[1][0]',
                                                                  'activation_1[0][0]']
==================================================================================================
Total params: 13,382,663
Trainable params: 13,382,663
Non-trainable params: 0
__________________________________________________________________________________________________
Model: "discriminator"
__________________________________________________________________________________________________
 Layer (type)                   Output Shape         Param #     Connected to
==================================================================================================
 input_3 (InputLayer)           [(None, 8, 8, 3)]    0           []
 conv2d_9 (Conv2D)              (None, 8, 8, 512)    1536        ['input_3[0][0]']
 weight_scaling_11 (WeightScali  (None, 8, 8, 512)   0           ['conv2d_9[0][0]']
 ng)
 bias_11 (Bias)                 (None, 8, 8, 512)    512         ['weight_scaling_11[0][0]']
 leaky_re_lu_8 (LeakyReLU)      (None, 8, 8, 512)    0           ['bias_11[0][0]']
 conv2d_10 (Conv2D)             (None, 8, 8, 512)    2359296     ['leaky_re_lu_8[0][0]']
 weight_scaling_12 (WeightScali  (None, 8, 8, 512)   0           ['conv2d_10[0][0]']
 ng)
 bias_12 (Bias)                 (None, 8, 8, 512)    512         ['weight_scaling_12[0][0]']
 leaky_re_lu_9 (LeakyReLU)      (None, 8, 8, 512)    0           ['bias_12[0][0]']
 average_pooling2d (AveragePool  (None, 4, 4, 3)     0           ['input_3[0][0]']
 ing2D)
 conv2d_11 (Conv2D)             (None, 8, 8, 512)    2359296     ['leaky_re_lu_9[0][0]']
 conv2d (Conv2D)                (None, 4, 4, 512)    1536        ['average_pooling2d[0][0]']
 weight_scaling_13 (WeightScali  (None, 8, 8, 512)   0           ['conv2d_11[0][0]']
 ng)
 weight_scaling (WeightScaling)  (None, 4, 4, 512)   0           ['conv2d[1][0]']
 bias_13 (Bias)                 (None, 8, 8, 512)    512         ['weight_scaling_13[0][0]']
 bias (Bias)                    (None, 4, 4, 512)    512         ['weight_scaling[1][0]']
 leaky_re_lu_10 (LeakyReLU)     (None, 8, 8, 512)    0           ['bias_13[0][0]']
 leaky_re_lu (LeakyReLU)        (None, 4, 4, 512)    0           ['bias[1][0]']
 average_pooling2d_1 (AveragePo  (None, 4, 4, 512)   0           ['leaky_re_lu_10[0][0]']
 oling2D)
 weighted_sum_1 (WeightedSum)   (None, 4, 4, 512)    1           ['leaky_re_lu[1][0]',
                                                                  'average_pooling2d_1[0][0]']
 minibatch_stdev (MinibatchStde  (None, 4, 4, 513)   0           ['weighted_sum_1[0][0]']
 v)
 conv2d_1 (Conv2D)              (None, 4, 4, 512)    2363904     ['minibatch_stdev[2][0]']
 weight_scaling_1 (WeightScalin  (None, 4, 4, 512)   0           ['conv2d_1[2][0]']
 g)
 bias_1 (Bias)                  (None, 4, 4, 512)    512         ['weight_scaling_1[2][0]']
 leaky_re_lu_1 (LeakyReLU)      (None, 4, 4, 512)    0           ['bias_1[2][0]']
 conv2d_2 (Conv2D)              (None, 1, 1, 512)    4194304     ['leaky_re_lu_1[2][0]']
 weight_scaling_2 (WeightScalin  (None, 1, 1, 512)   0           ['conv2d_2[2][0]']
 g)
 bias_2 (Bias)                  (None, 1, 1, 512)    512         ['weight_scaling_2[2][0]']
 leaky_re_lu_2 (LeakyReLU)      (None, 1, 1, 512)    0           ['bias_2[2][0]']
 flatten (Flatten)              (None, 512)          0           ['leaky_re_lu_2[2][0]']
 dense (Dense)                  (None, 1)            512         ['flatten[2][0]']
 weight_scaling_3 (WeightScalin  (None, 1)           0           ['dense[2][0]']
 g)
 bias_3 (Bias)                  (None, 1)            1           ['weight_scaling_3[2][0]']
==================================================================================================
Total params: 11,283,458
Trainable params: 11,283,458
Non-trainable params: 0
__________________________________________________________________________________________________
('You must install pydot (`pip install pydot`) and install graphviz (see instructions at https://graphviz.gitlab.io/download/) ', 'for plot_model/model_to_dot to work.')
…
